multi_model.tflite (tflite, 135224 bytes, 4 tensors)

tfl.pseudo_qconst1 i1 [5, 64]
000000 aa 75 fe ae 5b 69 f6 b6 a9 2b a6 57 b7 58 29 e3
       -86 117 -2 -82 91 105 -10 -74 -87 43 -90 87 -73 88 41 -29
000010 0f f6 2f e3 ea ed d0 7f 1b e6 16 e7 02 25 3f d9
       15 -10 47 -29 -22 -19 -48 127 27 -26 22 -25 2 37 63 -39
000020 e5 16 02 51 d6 2d a1 0a 47 c7 3e 0f 2d e9 5a 2d
       -27 22 2 81 -42 45 -95 10 71 -57 62 15 45 -23 90 45
000030 12 15 01 33 af 58 b4 9d fd 03 a5 d6 b4 34 05 bf
       18 21 1 51 -81 88 -76 -99 -3 3 -91 -42 -76 52 5 -65
000040 fa 23 d3 50 48 0f e5 56 a4 9c 1b 4d a8 e3 30 13
       -6 35 -45 80 72 15 -27 86 -92 -100 27 77 -88 -29 48 19
000050 39 d0 47 f2 da c7 a9 28 04 a8 0d 81 95 de b3 fe
       57 -48 71 -14 -38 -57 -87 40 4 -88 13 -127 -107 -34 -77 -2
000060 33 fb 54 b6 2b cb 47 56 50 a4 63 e0 1c dd 32 39
       51 -5 84 -74 43 -53 71 86 80 -92 99 -32 28 -35 50 57
000070 4c f3 19 48 47 e4 23 d6 06 d1 4a b3 14 b1 4e ff
       76 -13 25 72 71 -28 35 -42 6 -47 74 -77 20 -79 78 -1
000080 26 57 7f aa 1b de 9c f8 bd ef 03 d2 35 54 38 9c
       38 87 127 -86 27 -34 -100 -8 -67 -17 3 -46 53 84 56 -100
000090 93 b1 43 b9 c8 fe 2c ea bb 4f a3 08 13 b4 59 e5
       -109 -79 67 -71 -56 -2 44 -22 -69 79 -93 8 19 -76 89 -27
0000a0 21 44 bf 26 c1 b8 c8 1c 8f 43 fc 23 9f 37 bf f7
       33 68 -65 38 -63 -72 -56 28 -113 67 -4 35 -97 55 -65 -9
0000b0 62 3e a3 45 0c 34 01 46 16 00 19 ab ab 13 39 ff
       98 62 -93 69 12 52 1 70 22 0 25 -85 -85 19 57 -1
0000c0 a1 c8 2c 02 01 a3 9c 3f 2f fd ed bc de a8 ab 4e
       -95 -56 44 2 1 -93 -100 63 47 -3 -19 -68 -34 -88 -85 78
0000d0 01 20 e2 e3 15 e5 e7 a4 17 38 15 fb a6 47 94 38
       1 32 -30 -29 21 -27 -25 -92 23 56 21 -5 -90 71 -108 56
0000e0 bb 0e fe fb d3 95 20 5a 15 b5 fc 18 32 07 81 0f
       -69 14 -2 -5 -45 -107 32 90 21 -75 -4 24 50 7 -127 15
0000f0 1f c3 1c bc b2 5e 52 a8 f3 57 01 a9 23 3f ad bd
       31 -61 28 -68 -78 94 82 -88 -13 87 1 -87 35 63 -83 -67

tfl.pseudo_qconst3 i1 [64, 1920]
000000 2b 0f 0c 41 00 00 f7 f9 10 13 07 14 16 ed fa f8
       43 15 12 65 0 0 -9 -7 16 19 7 20 22 -19 -6 -8
000010 fa 2e 0a f5 18 02 10 f9 f4 0a 04 09 12 f6 0d 09
       -6 46 10 -11 24 2 16 -7 -12 10 4 9 18 -10 13 9
000020 f9 f7 0e f8 33 f6 ed 0c fc ee 03 f7 f6 06 fa fa
       -7 -9 14 -8 51 -10 -19 12 -4 -18 3 -9 -10 6 -6 -6
000030 0c ad 08 ed 1c f4 1b ee 07 eb 07 ff 0f 0e e7 e3
       12 -83 8 -19 28 -12 27 -18 7 -21 7 -1 15 14 -25 -29
000040 12 0d f6 04 09 03 14 17 02 17 fc ff 0b 19 fc 04
       18 13 -10 4 9 3 20 23 2 23 -4 -1 11 25 -4 4
000050 0d f4 f9 27 f7 f2 1f 08 2d 13 e0 02 21 fd 11 e9
       13 -12 -7 39 -9 -14 31 8 45 19 -32 2 33 -3 17 -23
000060 37 05 03 2b f4 11 02 08 12 31 fd 14 10 ed 09 ec
       55 5 3 43 -12 17 2 8 18 49 -3 20 16 -19 9 -20
000070 f7 2d fd f3 fe f0 00 04 f2 e9 fb 18 fc f2 fd 20
       -9 45 -3 -13 -2 -16 0 4 -14 -23 -5 24 -4 -14 -3 32
000080 0f e7 e2 d6 21 f3 e5 f4 f7 fe f4 1f fe eb 10 16
       15 -25 -30 -42 33 -13 -27 -12 -9 -2 -12 31 -2 -21 16 22
000090 12 bf f6 08 1f f7 ff 1b 18 ef 16 09 01 00 04 fd
       18 -65 -10 8 31 -9 -1 27 24 -17 22 9 1 0 4 -3
0000a0 f8 ee 0b f1 f6 10 01 17 f4 06 f5 d0 ff 30 e2 fd
       -8 -18 11 -15 -10 16 1 23 -12 6 -11 -48 -1 48 -30 -3
0000b0 ff da f7 17 ef eb 1e f8 16 f2 fa 36 0f 12 10 ef
       -1 -38 -9 23 -17 -21 30 -8 22 -14 -6 54 15 18 16 -17
0000c0 11 17 0b 21 f9 16 0b e7 13 1e ef 03 ef 16 fd e5
       17 23 11 33 -7 22 11 -25 19 30 -17 3 -17 22 -3 -27
0000d0 fd 22 fa 10 d5 10 f3 f6 0a 14 1e fd fb f7 13 17
       -3 34 -6 16 -43 16 -13 -10 10 20 30 -3 -5 -9 19 23
0000e0 e5 02 fa db 1c e4 e3 02 ed ed f1 0b e9 d5 f7 00
       -27 2 -6 -37 28 -28 -29 2 -19 -19 -15 11 -23 -43 -9 0
0000f0 10 d4 d2 14 f1 fa 1d 1d 1f 05 f1 03 1b 0d ec 10
       16 -44 -46 20 -15 -6 29 29 31 5 -15 3 27 13 -20 16

tfl.pseudo_qconst5 i1 [32, 3, 3, 16]
000000 1f fa 32 2f d5 01 03 df 06 2a f3 14 fc 10 04 e8
       31 -6 50 47 -43 1 3 -33 6 42 -13 20 -4 16 4 -24
000010 0c eb 0c 1e e3 e1 06 d7 32 23 14 01 27 db 01 25
       12 -21 12 30 -29 -31 6 -41 50 35 20 1 39 -37 1 37
000020 33 0f d8 3e 7f 3e 5b 21 d4 20 23 eb 2a f6 ee 3d
       51 15 -40 62 127 62 91 33 -44 32 35 -21 42 -10 -18 61
000030 13 e6 ff 10 ec 16 d0 d2 0e df bc 27 d2 32 0a e4
       19 -26 -1 16 -20 22 -48 -46 14 -33 -68 39 -46 50 10 -28
000040 16 01 f8 10 26 d9 d9 23 e3 00 02 08 0c f4 1f d5
       22 1 -8 16 38 -39 -39 35 -29 0 2 8 12 -12 31 -43
000050 1d 09 d5 3b 71 3c 4a eb f7 eb 43 1e 2b ec d8 42
       29 9 -43 59 113 60 74 -21 -9 -21 67 30 43 -20 -40 66
000060 34 bf fc 0f 09 30 cc d3 e2 d9 05 00 a9 19 1a 34
       52 -65 -4 15 9 48 -52 -45 -30 -39 5 0 -87 25 26 52
000070 06 01 f9 d9 dd ec 46 fc ec ce 0c 05 17 17 17 0a
       6 1 -7 -39 -35 -20 70 -4 -20 -50 12 5 23 23 23 10
000080 14 13 ce f8 33 fa 1c fd f5 d6 e9 1b 20 03 ce 0e
       20 19 -50 -8 51 -6 28 -3 -11 -42 -23 27 32 3 -50 14
000090 bd 4e 87 53 a6 f0 f3 44 bc 39 ba 42 eb db 0f 21
       -67 78 -121 83 -90 -16 -13 68 -68 57 -70 66 -21 -37 15 33
0000a0 4e 17 e5 35 c9 35 22 45 c5 bd f1 9a 1e d7 4d 52
       78 23 -27 53 -55 53 34 69 -59 -67 -15 -102 30 -41 77 82
0000b0 e2 18 af 54 35 ba fa 09 88 15 4a 29 d8 fc e8 d6
       -30 24 -81 84 53 -70 -6 9 -120 21 74 41 -40 -4 -24 -42
0000c0 c8 e8 d5 dd 84 d1 14 47 f6 5d 41 ee c1 1f f2 dd
       -56 -24 -43 -35 -124 -47 20 71 -10 93 65 -18 -63 31 -14 -35
0000d0 1c b3 1e be c4 62 d9 2b 57 f8 8f b7 aa e1 06 9a
       28 -77 30 -66 -60 98 -39 43 87 -8 -113 -73 -86 -31 6 -102
0000e0 c5 08 6c 1f 35 1b 56 e1 3e 9c ba cf 69 f5 fb 58
       -59 8 108 31 53 27 86 -31 62 -100 -70 -49 105 -11 -5 88
0000f0 38 74 2d 11 43 24 fa e1 c6 5f 1f 4b 4f 4f d3 ae
       56 116 45 17 67 36 -6 -31 -58 95 31 75 79 79 -45 -82

tfl.pseudo_qconst7 i1 [16, 3, 3, 1]
000000 7f 15 f6 4c e9 b4 23 c2 f9 01 39 5c b8 38 f8 3e
       127 21 -10 76 -23 -76 35 -62 -7 1 57 92 -72 56 -8 62
000010 75 7f c8 33 07 1b aa 14 31 81 57 7f b0 92 7e 2e
       117 127 -56 51 7 27 -86 20 49 -127 87 127 -80 -110 126 46
000020 be ef 08 99 11 1c 85 31 ad 81 fc a7 d8 6e e0 bb
       -66 -17 8 -103 17 28 -123 49 -83 -127 -4 -89 -40 110 -32 -69
000030 48 ae ae 7f f6 4e 81 c5 e1 c7 94 c4 04 87 f3 94
       72 -82 -82 127 -10 78 -127 -59 -31 -57 -108 -60 4 -121 -13 -108
000040 5d 7f c1 db 48 e7 67 00 0f de f3 48 21 17 c8 68
       93 127 -63 -37 72 -25 103 0 15 -34 -13 72 33 23 -56 104
000050 81 25 7f a4 96 a4 51 5c 76 72 ca 09 ba c9 f7 36
       -127 37 127 -92 -106 -92 81 92 118 114 -54 9 -70 -55 -9 54
000060 86 df 7f 01 4f 26 7f 2b 52 65 72 d7 8e de 48 b4
       -122 -33 127 1 79 38 127 43 82 101 114 -41 -114 -34 72 -76
000070 23 1f 89 b1 7f 7e 9d 0e 7f af a6 47 35 91 7f 19
       35 31 -119 -79 127 126 -99 14 127 -81 -90 71 53 -111 127 25
000080 4a cb b7 3c 56 bf 37 34 ff ef 7f a5 9b 3b c7 97
       74 -53 -73 60 86 -65 55 52 -1 -17 127 -91 -101 59 -57 -105
