Baby-Cry-IOT/binary_model.tflite (tflite, 17424 bytes, 5 tensors)

arith.constant f4 [8]
0	0x3d2c4c2b	0.042064827
1	0x3cf3fb56	0.029782932
2	0x3d187368	0.037219435
3	0x3d319fcd	0.04336529
4	0x3d0d0961	0.034432773
5	0x3d58472b	0.052802246
6	0x3ceea475	0.029131154
7	0x3d1b41ef	0.037904676

arith.constant1 f4 [8, 3, 3, 1]
0	0xbd558521	-0.052128915
1	0xbe4f4166	-0.20239791
2	0xbda5b780	-0.080916405
3	0x3d43b2f2	0.047778077
4	0xbe18fc3f	-0.14939974
5	0x3e6f45af	0.23366426
6	0x3deaa0e8	0.11456472
7	0xbe66ca9e	-0.2253823
8	0xbe128a81	-0.14310648
9	0xbe2c8348	-0.16846955
10	0xbe272cd0	-0.16325688
11	0xbe7b2a23	-0.24527793
12	0xbe999111	-0.2999349
13	0x3c9a37e3	0.018825477
14	0x3d9f698c	0.07783803
15	0x3df3e0b3	0.11908092
16	0x3e4161f9	0.1888503
17	0x3e4658c0	0.19369793
18	0xbde027ff	-0.10945129
19	0x3d45aa4a	0.048258103
20	0x3e37ec8a	0.17961326
21	0xbbfdcee3	-0.00774561
22	0x3d1d26b1	0.038366977
23	0x3e5dcb3a	0.21659556
24	0xbe25e774	-0.16201574
25	0x3e6726bd	0.22573371
26	0x3d7a1e0c	0.06106381
27	0x3cae32b3	0.02126441
28	0x3db3d25e	0.08780359
29	0xbd83a1d7	-0.06427353
30	0xbe30540d	-0.17219563
31	0x3e4dfefd	0.20116802
32	0x3e2e6e35	0.17034228
33	0x3d62c3bd	0.05536245
34	0x3e7a28dd	0.2442965
35	0x3d82880e	0.063736066
36	0xbd810ab7	-0.06300872
37	0x3e91aa8e	0.28450435
38	0xbe7fbefd	-0.249752
39	0x3e348f1d	0.17632718
40	0x3e99185e	0.29901403
41	0x3e03fdd2	0.12889794
42	0xbe736d24	-0.23772103
43	0xbd5b3463	-0.053516757
44	0xbdaef2d9	-0.08542413
45	0xbbdd418a	-0.0067521976
46	0x3e72e7ca	0.23721233
47	0xbdcea711	-0.10090459
48	0xbdb36212	-0.0875894
49	0x3e8f390a	0.27973205
50	0xbdc1ab41	-0.09456492
51	0xbe07be35	-0.13256152
52	0xbe539e26	-0.20665798
53	0x3dad3d9c	0.08459017
54	0x3cac4251	0.021027716
55	0x3e42b331	0.19013669
56	0xbe69da9f	-0.22837304
57	0xbe6105ac	-0.2197482
58	0xbe3b805e	-0.18310687
59	0xbe05e0b0	-0.13073993
60	0xbd80e615	-0.06293885
61	0xbddce51c	-0.10785887
62	0xbe335ccb	-0.17515866
63	0x3d68f586	0.056874774
64	0x3e997c79	0.29977778
65	0x3e4febdd	0.20304818
66	0xbe24d66a	-0.16097417
67	0x3e26ae93	0.16277532
68	0xbe7035c4	-0.2345801
69	0xbe9280b8	-0.2861383
70	0xbcaceabf	-0.02110803
71	0xbe8aca46	-0.27107447

arith.constant3 f4 [16]
0	0xbba8ded0	-0.0051535144
1	0xbbef33b1	-0.0072998633
2	0x3cb12033	0.0216218
3	0xbbc4bb18	-0.0060037486
4	0x3d0c00f4	0.034180596
5	0x00000000	0.0
6	0x3d0d3abc	0.03447984
7	0xbbf69d13	-0.007526049
8	0x3c9d79f9	0.0192232
9	0x3ca19ebe	0.019729014
10	0xbbc4c23a	-0.006004599
11	0x3ca3d5b6	0.019999366
12	0x00000000	0.0
13	0x00000000	0.0
14	0xbc4f6ced	-0.012660247
15	0xbc0c059c	-0.008546259

arith.constant5 f4 [1, 16]
0	0x3ee9b107	0.45642874
1	0x3ed43759	0.41448477
2	0xbe30ddc8	-0.17272103
3	0x3dacec41	0.08443499
4	0xbe2ef249	-0.17084612
5	0xbec3b072	-0.38220555
6	0xbe553f2d	-0.20824881
7	0x3ebceab0	0.36897802
8	0xbee194c5	-0.44058815
9	0xbf055232	-0.52078545
10	0x3f11a686	0.5689472
11	0xbeeb5e6a	-0.4597047
12	0x3e932656	0.28740185
13	0x3f0c8f72	0.5490638
14	0x3e27541a	0.16340676
15	0x3eb77c33	0.35836944

tfl.pseudo_qconst i1 [16, 880]
0	0xc4	-60
1	0x28	40
2	0x64	100
3	0x39	57
4	0x98	-104
5	0x20	32
6	0x50	80
7	0x94	-108
8	0xe8	-24
9	0x23	35
10	0x4c	76
11	0x10	16
12	0x54	84
13	0xc9	-55
14	0x1a	26
15	0x62	98
16	0xea	-22
17	0x44	68
18	0x93	-109
19	0xbe	-66
20	0xa4	-92
21	0xa1	-95
22	0x31	49
23	0x55	85
24	0xf4	-12
25	0x56	86
26	0xba	-70
27	0x6e	110
28	0x0b	11
29	0x6b	107
30	0x93	-109
31	0x68	104
32	0x4b	75
33	0x5a	90
34	0x6a	106
35	0x62	98
36	0xe9	-23
37	0xb3	-77
38	0x36	54
39	0x17	23
40	0x40	64
41	0x9a	-102
42	0x45	69
43	0x6b	107
44	0xc0	-64
45	0xd5	-43
46	0x39	57
47	0x66	102
48	0xb9	-71
49	0x64	100
50	0xec	-20
51	0xb4	-76
52	0x8e	-114
53	0x46	70
54	0x5a	90
55	0xc6	-58
56	0x01	1
57	0xe6	-26
58	0x8f	-113
59	0x82	-126
60	0x59	89
61	0xd7	-41
62	0x20	32
63	0x08	8
64	0xd2	-46
65	0x37	55
66	0x19	25
67	0xb9	-71
68	0x54	84
69	0x03	3
70	0x18	24
71	0xe3	-29
72	0x8b	-117
73	0xad	-83
74	0xad	-83
75	0x48	72
76	0xad	-83
77	0xbb	-69
78	0x70	112
79	0x8f	-113
80	0x65	101
81	0x69	105
82	0x43	67
83	0x6e	110
84	0xbe	-66
85	0xb5	-75
86	0x43	67
87	0xc6	-58
88	0xc9	-55
89	0x03	3
90	0xee	-18
91	0x5f	95
92	0xc9	-55
93	0x2f	47
94	0x0f	15
95	0x1a	26
96	0xc3	-61
97	0x57	87
98	0xb3	-77
99	0x31	49
100	0x8c	-116
101	0x41	65
102	0xa8	-88
103	0x40	64
104	0x90	-112
105	0x61	97
106	0xbc	-68
107	0x96	-106
108	0x9c	-100
109	0x11	17
110	0x88	-120
111	0x9b	-101
112	0x3d	61
113	0x94	-108
114	0xb0	-80
115	0xad	-83
116	0xbd	-67
117	0x31	49
118	0xbf	-65
119	0x2f	47
120	0x40	64
121	0x20	32
122	0xaa	-86
123	0x0d	13
124	0x6d	109
125	0xa7	-89
126	0x0a	10
127	0x96	-106
128	0xfd	-3
129	0xe2	-30
130	0x1b	27
131	0x66	102
132	0xdb	-37
133	0x16	22
134	0x1f	31
135	0xe5	-27
136	0x45	69
137	0xfc	-4
138	0x23	35
139	0xcc	-52
140	0x69	105
141	0x86	-122
142	0xea	-22
143	0xf1	-15
144	0x04	4
145	0x5e	94
146	0xc7	-57
147	0x0f	15
148	0xcc	-52
149	0xda	-38
150	0x3b	59
151	0x8d	-115
152	0x4c	76
153	0xaf	-81
154	0xc0	-64
155	0x9b	-101
156	0xcf	-49
157	0xe5	-27
158	0x31	49
159	0x90	-112
160	0xc4	-60
161	0xe3	-29
162	0xa0	-96
163	0x6c	108
164	0x29	41
165	0xea	-22
166	0x05	5
167	0x3b	59
168	0x20	32
169	0x32	50
170	0x27	39
171	0x6a	106
172	0x91	-111
173	0x20	32
174	0x52	82
175	0x0c	12
176	0xfe	-2
177	0x3e	62
178	0x81	-127
179	0x98	-104
180	0x81	-127
181	0xc6	-58
182	0xf2	-14
183	0x46	70
184	0xfd	-3
185	0x6f	111
186	0xf1	-15
187	0x40	64
188	0xa2	-94
189	0xe3	-29
190	0x66	102
191	0xb9	-71
192	0x97	-105
193	0x57	87
194	0xcc	-52
195	0xc5	-59
196	0x1e	30
197	0x28	40
198	0x92	-110
199	0x07	7
200	0xfc	-4
201	0x49	73
202	0x84	-124
203	0x39	57
204	0x36	54
205	0xf4	-12
206	0xf9	-7
207	0x23	35
208	0xa3	-93
209	0xf6	-10
210	0x18	24
211	0x24	36
212	0xfb	-5
213	0x41	65
214	0x9d	-99
215	0xee	-18
216	0x34	52
217	0xc0	-64
218	0xb5	-75
219	0x68	104
220	0xdc	-36
221	0xfa	-6
222	0x0e	14
223	0x66	102
224	0x91	-111
225	0xfe	-2
226	0x87	-121
227	0x99	-103
228	0x3f	63
229	0x8a	-118
230	0xc0	-64
231	0xc0	-64
232	0x90	-112
233	0x55	85
234	0x27	39
235	0x39	57
236	0xce	-50
237	0x5a	90
238	0x9a	-102
239	0xbc	-68
240	0xca	-54
241	0xb6	-74
242	0xd4	-44
243	0x97	-105
244	0x9d	-99
245	0x0d	13
246	0x1c	28
247	0x5e	94
248	0xe1	-31
249	0xeb	-21
250	0x3d	61
251	0x6f	111
252	0xf7	-9
253	0x25	37
254	0xe8	-24
255	0x51	81
